    (10): TransformerEncoderBlock(
      (residual_1): ResidualAdd(
        (fn): Sequential(
          (0): LayerNorm((768,), eps=1e-05, elementwise_affine=True)
          (1): MultiHeadAttention(
            (keys): Linear(in_features=768, out_features=768, bias=True)
            (queries): Linear(in_features=768, out_features=768, bias=True)
            (values): Linear(in_features=768, out_features=768, bias=True)
            (att_drop): Dropout(p=0, inplace=False)
            (projection): Linear(in_features=768, out_features=768, bias=True)
          )
          (2): Dropout(p=0.0, inplace=False)
        )
      )
      (residual_2): ResidualAdd(
        (fn): Sequential(
          (0): LayerNorm((768,), eps=1e-05, elementwise_affine=True)
          (1): FeedForwardBlock(
            (0): Linear(in_features=768, out_features=3072, bias=True)
            (1): GELU(approximate='none')
            (2): Dropout(p=0.0, inplace=False)
            (3): Linear(in_features=3072, out_features=768, bias=True)
          )
          (2): Dropout(p=0.0, inplace=False)
        )
      )
    )
    (11): TransformerEncoderBlock(
      (residual_1): ResidualAdd(
        (fn): Sequential(
          (0): LayerNorm((768,), eps=1e-05, elementwise_affine=True)
          (1): MultiHeadAttention(
            (keys): Linear(in_features=768, out_features=768, bias=True)
            (queries): Linear(in_features=768, out_features=768, bias=True)
            (values): Linear(in_features=768, out_features=768, bias=True)
            (att_drop): Dropout(p=0, inplace=False)
            (projection): Linear(in_features=768, out_features=768, bias=True)
          )
          (2): Dropout(p=0.0, inplace=False)
        )
      )
      (residual_2): ResidualAdd(
        (fn): Sequential(
          (0): LayerNorm((768,), eps=1e-05, elementwise_affine=True)
          (1): FeedForwardBlock(
            (0): Linear(in_features=768, out_features=3072, bias=True)
            (1): GELU(approximate='none')
            (2): Dropout(p=0.0, inplace=False)
            (3): Linear(in_features=3072, out_features=768, bias=True)
          )
          (2): Dropout(p=0.0, inplace=False)
        )
      )
    )
  )
)